Lab2/stage2/trained_model/Douban/KG_free/dim32_lr0.001_l20.0001/model0_epoch20.pth (torch, 132419 bytes, 2 tensors)

user_embed.weight f4 [447, 32]
00000000: c01f 7f3e 9b42 d33d 910e 14be 507a ae3e
00000010: 852d 68bd be51 22bd fb13 70be 9168 493d
00000020: 8d22 35be 2c10 8f3d 28ac 0f3d a76f 713d
00000030: 0591 4c3c b542 173e fe91 ee3d 34bc e73d
00000040: 8268 683d c452 b0be ef18 e53d 8468 2abe
00000050: a5bb a23e 23c6 ee3d 79c6 73be 0e31 febd
00000060: 5a07 8bbe e210 6bbe 160a 493c 16cf b13e
00000070: a04a f6be 80bc a33d 0a16 f0bc 3345 2abe
00000080: 7f9c 5e3e fda3 d93d ddc5 8c3e dc7d cebd
00000090: 1f1c c33c 8cf3 323d aefd 993d 6bbe 0a3e
000000a0: 3e3a afbe 278a 633d 9e2e 31be 94ed 31bd
000000b0: 294d fe3d a7b7 033e f610 09be c9e4 0c3d
000000c0: 85b5 f4bd 5102 10be 1f6e 263e fb08 f2bc
000000d0: 181d 4b3e 5beb a8bd 97ca 53be 5276 883e
000000e0: 8639 a0be 9833 0dbe c444 903d 98f9 873e
000000f0: 91c9 7ebe 4fba 883e 9941 ca3e bb2b 57bb
00000100: 4610 883e 511c 443e 5879 13be 3b36 993e
00000110: 6d79 3abc ff6d 2abe 9ac3 d8be b95b fcbd
00000120: 1931 babe 3f86 923e 71e8 b23d 2d0f dbbd
00000130: a3d9 893d 0036 3e3e 8304 1f3d 0695 c1bd
00000140: 6823 af3e 1ebd aebd b79a b43e 1050 963d
00000150: 2208 2b3e f39a 6b3e 04f9 77be da23 d53c
00000160: 349d 26be 282b 01be 92b6 6dbb a5a3 933e
00000170: 0df3 c0be 3e18 883e 4170 873e 7aea 15bd
00000180: 80e3 ac3e 7f5e bb3e 7042 6dbd 80e2 073f
00000190: 7371 8a3e 64b7 cdbc 05a3 81bd 6f4f 7b3e
000001a0: ff13 82be 5b93 99bd 1106 11be f527 773e
000001b0: dc5e 093e 9b3d 343e e15e 933d dac7 82bd
000001c0: d8ad f63e 4175 d73d eab2 b2bc 2158 0abd
000001d0: c136 c63d f4bb 343e 05a7 03bf 677e d1bd
000001e0: 08c3 33bd a28a e8be 4ccf 0f3f b0c7 023f
000001f0: 55c4 a8be fcaf de3e ce24 9d3e 552b b1be
00000200: 7c1c 943e acb8 d63d bad7 3b3e 9c79 153e
00000210: 96b0 5c3e c792 29be bb33 ec3d 5dc2 343e
00000220: b621 8dbe 61f0 0dbe ed99 9ebd c57d 703e
00000230: 9054 023d 023f a43d b444 5d3e 07cb 8abe
00000240: 3331 373e 5120 09be 2b72 533d 8258 10bd
00000250: ffd9 d83d 67d0 8a3e c26d a6be a9b1 5e3e
00000260: 43fe 60be a6fa 2ebe a602 933c 3b6b 883e
00000270: 998f 45be db40 bc3d 11cc 0e3e 1714 42be
00000280: ead5 a9be 0916 153f 85b5 373f c309 f8be
00000290: 5230 fc3e dbfc 05bd b888 183e ff6b 993e
000002a0: a702 c73d b90c 0a3e 37b5 16bf b332 0abf
000002b0: 1324 2f3d 2eb5 07be 0d6a 0bbf 1ee5 193e
000002c0: b9a1 b13c 0a80 1f3e 0465 513e 220b 103f
000002d0: 25d8 993e 8842 f1be 30b5 cd3e 717c 8abe
000002e0: 7fdd 39bf 184d 05be e989 8abe bb80 703d
000002f0: b5d0 603e 76f0 183f c228 2c3e 482f 2f3f
00000300: 624f adbd 4c7f 323e eb32 b8bd e7ab 2c3e
00000310: a77f 4e3e 2ce0 1abe 3a7c 973d b4b4 6b3d
00000320: dee7 53bd d495 4e3b bc16 b13c 043b 46be
00000330: 6dca 6c3e f64f 5a3e a275 d53d 5098 863d
00000340: 3c77 20bd be5c 083d 43dd c43d 1fbe 473e
00000350: 96de f83d b054 143c b64c 32be a40f 2f3e
00000360: 68db 53bd 386b 813d d940 ac3d 3efe 1a3e
00000370: e8f7 84be b2ea 283d 03f1 483e 2069 803e
00000380: 42af 583e 091c b63e 9dc6 3ebe 3c0e 8b3e
00000390: 340a 113e b1a9 95be 8acd 6abe 6136 c33e
000003a0: e05f 44be ecf5 b03d 1656 c7bd 6b9c 2a3e
000003b0: bde4 a83e 7b38 2a3e 4c11 893e 3172 06bd
000003c0: 822f f43d d268 9e3e 2547 74bd 0dd9 fabd
000003d0: 19ad 833e 08ac acbb 7ba5 9fbe 6051 dc3e
000003e0: a16c 75be c748 6dbe 746a eabd 321b 603e
000003f0: b271 9cbe da22 6a3e 2c5f cd3c dad7 893d
0.24914455 0.10315438 -0.14458682 0.34077692 -0.056684036 -0.039628737 -0.23445122 0.049171988
-0.17688961 0.069855064 0.03507629 0.05894437 0.012485747 0.1477154 0.116489395 0.11315194
0.05674029 -0.34438145 0.11186396 -0.16641432 0.31783786 0.11658885 -0.2380618 -0.124117
-0.27154046 -0.22955659 0.012270471 0.34728307 -0.4810381 0.07994938 -0.029307384 -0.1662796
0.21739386 0.106269814 0.27494708 -0.100825995 0.02381712 0.043689296 0.07519089 0.13549201
-0.34224123 0.055551674 -0.1730294 -0.043439463 0.12417061 0.12863027 -0.13385376 0.034397874
-0.119486846 -0.14063384 0.16252945 -0.029545298 0.19835317 -0.082480155 -0.2068275 0.2665277
-0.31293887 -0.13789213 0.07044366 0.26557612 -0.24881579 0.26704642 0.39503172 -0.0032832462
0.26574916 0.19151427 -0.14401758 0.29924187 -0.011381489 -0.16643523 -0.42336732 -0.12322182
-0.36365584 0.28618047 0.08735741 -0.10696254 0.06730964 0.18575287 0.038822662 -0.09452252
0.342067 -0.08532165 0.35274288 0.073394895 0.16702321 0.23008327 -0.24216086 0.026018072
-0.16270906 -0.12614119 -0.003627215 0.28835788 -0.37685433 0.26580995 0.2645283 -0.036600567
0.3376732 0.36595532 -0.057924688 0.53079987 0.2703968 -0.025111862 -0.06329922 0.2454202
-0.2540588 -0.07498809 -0.1416247 0.24136336 0.13415092 0.17601626 0.07195831 -0.06385775
0.48179507 0.10520411 -0.021813828 -0.033775453 0.09678412 0.17649823 -0.51426727 -0.102291875
-0.04388717 -0.45418268 0.56175685 0.5108595 -0.3296229 0.4349364 0.30692142 -0.34603372
0.28927982 0.10484442 0.18344012 0.14597172 0.21551737 -0.16559897 0.11533304 0.17652269
-0.27564782 -0.13861229 -0.07744203 0.23485477 0.031818926 0.0801983 0.2160824 -0.27108023
0.17889862 -0.13391234 0.05162255 -0.035240658 0.105884545 0.27112123 -0.32505614 0.2174746
-0.21971993 -0.17087802 0.017945599 0.2664431 -0.1929306 0.09192058 0.13945033 -0.18952976
-0.33171016 0.5823675 0.7176135 -0.48444948 0.49255615 -0.032711845 0.14895904 0.29965207
0.09717303 0.13481416 -0.5887026 -0.5398361 0.042759012 -0.13252708 -0.54458696 0.15028808
0.02168356 0.15576187 0.2044869 0.5626699 0.30047718 -0.47121072 0.40177298 -0.27048066
-0.726036 -0.1301769 -0.27058342 0.058716517 0.21954615 0.59741914 0.16812423 0.6843152
-0.08462407 0.17431372 -0.08994087 0.1686245 0.20165883 -0.15124577 0.07396741 0.05754538
-0.051734798 0.003152241 0.021617286 -0.1935845 0.23124094 0.21319565 0.10422827 0.0657202
-0.03917621 0.03329157 0.09612515 0.19506119 0.1215183 0.009053394 -0.17412075 0.1709581
-0.051722914 0.063192785 0.08410806 0.15136048 -0.25970387 0.041239448 0.19623189 0.25080204
0.21160606 0.35568264 -0.18630452 0.27159297 0.14164048 -0.29231027 -0.2292997 0.38127425
-0.19177198 0.08640656 -0.097332165 0.16661231 0.32987013 0.16623108 0.2677101 -0.032823745
0.11923124 0.30939347 -0.05963816 -0.122484304 0.25718 -0.005269531 -0.3118094 0.43030834
-0.2396722 -0.23172294 -0.114460856 0.21885374 -0.30555493 0.22864857 0.025069796 0.067306235

item_embed.weight f4 [578, 32]
00000000: 377a a6bd dc23 323e aea9 d53d 421e a4bd
00000010: d82f 4abe e4f1 adbe f00e e0be ebf6 eabe
00000020: f8d6 97bd dcb9 7b3e 6086 61be d320 f3bd
00000030: 58f5 a03e 4f64 383e 88e9 2bbe 4a4e 9cbd
00000040: 2aee 99be 16b0 ee3e 3877 43be 0c6c f43e
00000050: a75c a9bd 917d bcbe 89d4 a93e c462 a63d
00000060: 411d 59be a41a c8bd dd7c f2be e6b2 0ebe
00000070: b24c 8bbd 37c8 d03d 5a86 083e 10ae 7b3d
00000080: 1a38 83be 2f14 833e 81c9 383e 082c 1cbe
00000090: 31f0 243e 49ad f3be 2a2a f8be d31a abbe
000000a0: 484d 34be bf92 19bd bf85 e2bd bab7 2dbe
000000b0: 310d 9dbd 83f2 673e 720a 90be db6a 9b3e
000000c0: 25a8 833d 6f12 a03e dd62 96be b147 c13e
000000d0: 8bcf d63e 72ba a4be 860b 81be 7c58 203e
000000e0: 5f17 74be 2dc1 50be 4015 0b3e d726 1dbe
000000f0: e87a e5be 3254 873d 55b8 813e 4c3d d8bd
00000100: 5571 32be 5d62 c53e 5d22 49be 2697 693e
00000110: d624 29be dd3a 96be 4a28 a3be d505 29be
00000120: ddf2 adbe 5e11 11be dbae b4be 6e73 73be
00000130: 2aa5 e43d 8555 b23d dc21 adbe ee98 bf3c
00000140: 805d a8be 4b61 423d ff54 f0be 656a 083f
00000150: 8692 1d3d eec6 17bf 6c31 b2bd 1554 bf3d
00000160: 1310 94be 5f51 67be 3874 02bf c136 ea3d
00000170: 420c b5be 2ca0 173e 5adb bd3d 7a72 57be
00000180: 35f9 49bd a555 cc3d ea72 c93d f3ad 53bc
00000190: 9b18 81be c0d3 c5bd 60ff 553e a3a3 423e
000001a0: c25c 14bd 9208 a4bd 5fed 77bd 14e3 cb3e
000001b0: 6e80 a23c 6cbe febc 9056 8a3e 6913 063c
000001c0: aa04 003e 328e 663e 182c 6f3e 67f7 0fbe
000001d0: ea1b 32be 6bac d53a df7b f8bd 3eed 633e
000001e0: 213c c4ba 1e87 893d b498 fc3d 0dc0 913e
000001f0: b5e5 863d 4891 43bd 4a8b 983d 726b 59be
00000200: 9a63 d8bb db2e 1fbe 35a8 b03d 3771 4dbe
00000210: 1bb4 e8be e48e e63e 8ca5 333e 9255 60bd
00000220: 247c fc3d d200 13be 9bd1 113d b3af f0bd
00000230: d2e4 89be 8dfd 2cbe 51b7 83be 7501 3dbe
00000240: b536 e5bd ef7e f6bd 9c99 91be 6a80 c23b
00000250: 9828 97be ab30 6dbc 0935 283e 57f7 3bbe
00000260: 599c d93e 756d 923d 4e8c a6bd 836f b3be
00000270: c07c 9c3e 2ab0 4ebe 372b 70be c968 693c
00000280: 1630 433d d789 c4bd af8e 12be 7a12 66be
00000290: 143c 013e ad5b b43e 2b01 943d 3468 5abe
000002a0: 9126 803e 8e41 cebc 7ba8 39be 9b78 193d
000002b0: c21a a6bd 4127 2ebe 6b24 7fbe 1d3f f3bc
000002c0: 9cc0 fbbd 3426 4abe 2070 c73d 125f 3e3e
000002d0: dd44 3fbe 41f2 b9bd e574 b23e acc9 01be
000002e0: 3f4f bd39 6806 5e3e 0c74 b5bd 4979 a23d
000002f0: df8b 7f3e f598 9abd c7c0 62bd d8b9 753e
00000300: 58f2 91be ab25 273f 6c61 1b3d 4a7c dabd
00000310: a4f5 3b3e a850 30be 6015 12bf 1f8c c8bd
00000320: d292 10bf aa63 223f 1b63 0dbf 55e5 1ebf
00000330: 5204 493e bc64 d43e 68d0 853e 25e5 ee3d
00000340: 2f91 853e 516d 133f 51dc 2a3e ac55 113f
00000350: 5bf2 023e df1e 0dbf 2919 10bf be5b 143f
00000360: 87a6 dabe 6f59 0cbe c592 86be a0f9 963d
00000370: 28b3 fcbe 6599 d83e 54e2 f03e 6b21 893e
00000380: 27b3 97be 4125 e93e 717b 123f c9d4 13be
00000390: a917 6f3d 8dd1 0fbf c970 c6be a624 1ebe
000003a0: 1a34 2abf 9579 a83e 0d79 aebe c050 36bf
000003b0: 0210 f53e a30c 583e 1e46 70be a8c5 8d3e
000003c0: 9a40 aebd db4b 013f 5def ac3d b036 343f
000003d0: ceff 993e 6cbd cfbe eeaf c7bd b86b 893e
000003e0: ac8a c6be bf41 75be ebae 06be 7122 8d3e
000003f0: df0e 10bf 3f02 933e 70a4 ff3e d03c b53e
-0.081287794 0.17396492 0.104327545 -0.08013584 -0.19744813 -0.3397361 -0.43761396 -0.45891508
-0.07414049 0.24582618 -0.22023916 -0.11871495 0.31437182 0.18007015 -0.16788304 -0.0763212
-0.30064517 0.46618718 -0.19088447 0.47738683 -0.08269625 -0.3681455 0.33169964 0.08124307
-0.21202566 -0.09770706 -0.47360888 -0.13935432 -0.06801738 0.10194438 0.13332501 0.061445296
-0.2562874 0.25601336 0.18045618 -0.15251172 0.16107251 -0.47593144 -0.4846967 -0.33418903
-0.17607605 -0.037493464 -0.11060666 -0.16964617 -0.07668532 0.22651105 -0.2813297 0.30354962
0.064285554 0.31264064 -0.29372302 0.3775001 0.41955218 -0.32173496 -0.25204104 0.15658754
-0.2383704 -0.2038619 0.13582325 -0.15346847 -0.44820333 0.06607856 0.25335947 -0.105585665
-0.17426045 0.38551608 -0.19642015 0.22811565 -0.16517958 -0.29341784 -0.31866676 -0.16506131
-0.33974352 -0.14166781 -0.35289654 -0.23774502 0.11164315 0.08707718 -0.33814895 0.023388352
-0.32883835 0.047456067 -0.46939847 0.53287345 0.038469814 -0.5928792 -0.08700833 0.09342209
-0.28918514 -0.22589634 -0.50958586 0.11436225 -0.35360914 0.14807194 0.092703536 -0.21039763
-0.049309928 0.09977273 0.09836371 -0.012919891 -0.25214085 -0.09659529 0.20898199 0.19007735
-0.036221273 -0.08009447 -0.06052911 0.39821684 0.01983663 -0.03109666 0.27019167 0.008183339
0.12501779 0.2251518 0.23356664 -0.1405922 -0.17393461 0.0016301995 -0.121330015 0.2225847
-0.0014971533 0.06715225 0.12333813 0.28466836 0.06586782 -0.047745973 0.07448442 -0.21232393
-0.0066036703 -0.15545218 0.08625833 -0.2006272 -0.4544991 0.45030892 0.1754362 -0.054769106
0.123283654 -0.14355782 0.035600286 -0.11752262 -0.2693239 -0.16893597 -0.25725797 -0.18457587
-0.11192075 -0.120359294 -0.28437507 0.0059357183 -0.29523158 -0.014476935 0.16426481 -0.18356071
0.42502096 0.071497835 -0.0813223 -0.35046014 0.30563927 -0.20184389 -0.23453985 0.014246174
0.04765328 -0.09596603 -0.14312242 -0.22467986 0.12620574 0.35226193 0.07226785 -0.21328813
0.25029424 -0.025177743 -0.18130676 0.037468534 -0.081105724 -0.17007162 -0.24916236 -0.02969318
-0.12292597 -0.19741136 0.09738183 0.18590954 -0.18678613 -0.090794094 0.34854808 -0.12674588
0.00036107932 0.21682131 -0.08860025 0.079332896 0.249557 -0.075487055 -0.055359628 0.23996675
-0.28505206 0.6529185 0.037934706 -0.106682375 0.18355423 -0.17218268 -0.57063866 -0.09792351
-0.5647403 0.63433325 -0.5522935 -0.6206868 0.19630554 0.41483104 0.26135564 0.116647996
0.2608733 0.5758868 0.16685607 0.5677135 0.12787764 -0.5512523 -0.5628839 0.5795249
-0.42705175 -0.13705991 -0.2628385 0.07371831 -0.49355435 0.4230453 0.47047675 0.26783308
-0.2962887 0.45536235 0.57219607 -0.1443664 0.058372173 -0.56179124 -0.38757923 -0.15443668
-0.6648575 0.3290526 -0.3407673 -0.71216965 0.47863775 0.2109857 -0.23464248 0.27689862
-0.085084155 0.5050637 0.084440924 0.70395947 0.30077976 -0.40574205 -0.09750353 0.26839995
-0.38777673 -0.23950861 -0.13152663 0.2756534 -0.5627269 0.2871265 0.49930143 0.3539796
