Lab2/stage2/trained_model/Douban/KG_free/dim32_lr0.001_l20.0001/model1_epoch10.pth (torch, 132419 bytes, 2 tensors)

user_embed.weight f4 [447, 32]
000000 86 63 26 3e c5 72 48 3d a1 72 a6 bd 28 08 3c 3e
       0.16248903 0.048937578 -0.081273325 0.18362486
000010 7c 6d 80 bd 67 83 92 3b 66 a5 f8 bd d1 ec fd bb
       -0.062708825 0.004471231 -0.12140922 -0.007749178
000020 fc b1 87 bd 93 d5 18 3d 77 27 85 3d bd 42 f5 3c
       -0.06625745 0.037313055 0.06501668 0.02993905
000030 7d 42 fe 3c ff 44 d5 3d 57 c8 8e 3d 83 1d b5 3d
       0.031037563 0.104135506 0.069718055 0.088435195
000040 03 c8 e3 3c e2 79 3f be 67 fb aa bc f2 b4 b2 bd
       0.027805334 -0.18698838 -0.020871831 -0.08725919
000050 87 4b 0f 3e 91 8b 80 3c 6b 82 04 be 6c f7 7e bd
       0.13993655 0.01569155 -0.12940376 -0.06224768
000060 be 12 e6 bd d8 2b 02 be 39 f4 46 bd cb a3 45 3e
       -0.112340435 -0.12712038 -0.048572753 0.19300763
000070 ca 63 95 be f3 a6 1b 3d 7e d2 9f bd ac 11 b5 bd
       -0.29177696 0.038001012 -0.0780382 -0.08841261
000080 61 9e c3 3d 52 f6 a8 3c ab 7a 05 3e 19 7e a8 bd
       0.09551693 0.020625267 0.13035075 -0.08227176
000090 54 45 61 bd a8 7b 92 3d 0b 9d 4b 3d ac 0c 72 3d
       -0.054997757 0.07152492 0.049710315 0.059094116
0000a0 cb 1a 4e be b2 6b 4b 3d ed 75 91 bb 08 6f 60 ba
       -0.20127408 0.049663253 -0.0044391067 -0.0008561467
0000b0 f2 a6 94 3d 34 85 94 3d 08 9a 86 bd 1d 24 32 bd
       0.07258405 0.07251969 -0.06572348 -0.04349147
0000c0 69 db ac bd 58 46 20 be 7d 04 3f 3d 7b 9b dd bd
       -0.08440287 -0.15651834 0.04663514 -0.10820671
0000d0 d1 f7 12 3e 29 14 83 bc f8 f8 41 bd 31 ce 22 3e
       0.14352347 -0.016000824 -0.047356576 0.15898968
0000e0 66 4e 31 be c4 7f 93 bd 24 a2 d6 3d 93 e4 38 3e
       -0.17315063 -0.07202104 0.104801446 0.18055944
0000f0 d8 84 be bd 80 4a 26 3e 7a 96 66 3e 0e 4e 2e 3c
       -0.09302682 0.16239357 0.2251834 0.010638727
000100 bd 8f 36 3e c5 ff 0a 3d da d5 97 bd f4 5a d4 3d
       0.1782827 0.033935327 -0.07413836 0.103689104
000110 12 ff 75 bd 58 8e 11 ba 22 cd 65 be 27 1c ff bd
       -0.060057707 -0.0005552522 -0.22441533 -0.124565415
000120 80 f5 40 be b7 fa 02 3e cd 09 e7 3d c8 7e d1 bd
       -0.18843651 0.12790953 0.11281166 -0.1022926
000130 00 1e 53 bd b3 54 84 3d f4 dc 95 bc 41 1d 52 bd
       -0.051542282 0.064614676 -0.018293835 -0.05129743
000140 87 e5 43 3e 83 27 0d be f8 a6 23 3e 5d b9 0c bd
       0.19130526 -0.13784604 0.15981662 -0.034356464
000150 d9 af 25 3d e3 69 1b 3e 99 ab be bd 7b 21 0d 3c
       0.040450905 0.15177111 -0.093100734 0.008613939
000160 ca 83 29 bd 8e be 45 bb cc 8e 52 bd 62 b9 3c 3e
       -0.04138545 -0.0030173394 -0.051405713 0.18430093
000170 b8 05 56 be d6 4d b2 3d c1 af aa 3d 18 5e 2d 3b
       -0.20900619 0.08706252 0.08334304 0.002645379
000180 9f 39 68 3e 58 0e 51 3e 23 f2 04 bd 67 f8 8a 3e
       0.2267823 0.20415628 -0.032457482 0.2714264
000190 67 84 d5 3d a8 90 63 3d ce f0 20 bc dd 1e aa 3d
       0.10425644 0.055557877 -0.009823037 0.08306668
0001a0 ca 56 0e be 3c 8f f5 bc 35 38 c5 bd 22 37 1c 3d
       -0.13900295 -0.029975526 -0.09629861 0.038138516
0001b0 5f 49 a1 3d ee 94 36 3e c3 72 b1 3d c7 b7 13 3d
       0.078753226 0.1783025 0.08664467 0.036063936
0001c0 06 d6 8d 3e 29 c1 4f 3d 98 d9 05 3d 30 99 12 bd
       0.2770235 0.05072132 0.032678217 -0.035790622
0001d0 9c 94 72 bc 83 98 53 3d 74 30 95 be 0a 48 ac bd
       -0.014805939 0.05165912 -0.2913853 -0.08412178
0001e0 02 e6 32 3c a3 90 8e be 91 f7 a6 3e e3 f7 9b 3e
       0.010919096 -0.27844724 0.32610753 0.3046256
0001f0 9a 5f 53 be 05 aa 35 3e a9 12 2a 3e 54 7d 3e be
       -0.20641938 0.17740639 0.16608681 -0.18602496
000200 d5 99 d0 3d eb 2d 77 3c 6d 06 ce 3d be 01 36 3d
       0.10185591 0.015086631 0.10059819 0.044435255
000210 ab ba d6 3d 47 c0 e7 bd 3e ca c4 3d 88 09 4e 3d
       0.10484823 -0.11315971 0.09608887 0.05030206
000220 ef c3 45 be 71 90 86 bd 14 1d 4c 3c de 22 01 3e
       -0.19313024 -0.06570519 0.012458105 0.12610957
000230 82 cc 11 3d 86 14 35 3d fc 2b df 3d e6 d1 41 be
       0.035595424 0.044209026 0.10897061 -0.18927726
000240 eb 9f d1 3d 92 a7 cf bd 2e 6c 33 3d c9 b6 3f 3c
       0.1023558 -0.101393834 0.04380434 0.011701294
000250 b3 c6 7c 3c 1e 92 27 3e e8 f2 5a be c2 3e 11 3e
       0.015428233 0.16364333 -0.21381724 0.14184096
000260 f0 f1 01 be 41 96 d4 bd 30 80 d1 bc 1a 8e fc 3d
       -0.12689948 -0.10380221 -0.02557382 0.12331791
000270 04 55 d1 bd 4b 52 2c 3d 7e 15 0a 3e e7 a8 f3 bd
       -0.102212936 0.04207067 0.13484761 -0.1189745
000280 9b 8f f4 bd 33 1b b7 3e de c6 d2 3e 49 11 9b be
       -0.11941453 0.3576294 0.4116735 -0.30286625
000290 68 0f 8b 3e 94 f9 de 3b a4 61 cf 3d cd af 4f 3e
       0.27160192 0.0068046544 0.10126045 0.20281906
0002a0 fe 4e cd 3d e9 77 99 3d dd 32 9c be 59 3d 9a be
       0.10024832 0.07493574 -0.30507556 -0.3012493
0002b0 4c 32 17 3d d5 a1 b7 bd 69 94 84 be aa 28 d0 3c
       0.0369132 -0.08966414 -0.25894478 0.025410015
0002c0 d2 9b 10 3d 8b d0 8f 3d a5 52 83 3d 90 c1 a1 3e
       0.03530485 0.07022198 0.064122476 0.3159299
0002d0 35 c3 20 3e 4f ac 87 be 4a c0 89 3e 1d fe 4c be
       0.15699466 -0.2649865 0.26904517 -0.20018812
0002e0 72 1a ca be 93 89 75 bd 4d c4 25 be 01 c0 ac 3c
       -0.394733 -0.059945654 -0.16188164 0.021087648
0002f0 33 27 18 3e 7e 14 ad 3e fd 4e 85 3d 63 9c ce 3e
       0.14858703 0.33804697 0.065092064 0.4035369
000300 43 be 78 bd b1 0d bc 3d fd cf 4a bd 75 2a 05 3e
       -0.060728323 0.09182299 -0.04951476 0.13004477
000310 e8 7d 04 3e ae 2f a8 bc c4 7d 8d 3d 23 b5 9b 3d
       0.12938654 -0.020530548 0.069087535 0.076029085
000320 c0 51 a2 35 43 8c 5c 3d 90 09 7d 3d 7d 37 03 be
       1.2093733e-06 0.0538447 0.061776698 -0.12814136
000330 7b a0 cb 3d ad 53 d6 3d bd 78 0e 3d 09 8e 31 3c
       0.099427186 0.10465179 0.034783114 0.0108370865
000340 cf 5d 1c bb f6 9f be bc f4 00 13 3b 15 f7 e5 3d
       -0.0023859625 -0.023269635 0.0022430988 0.11228768
000350 2d a2 b1 3d 09 c5 c5 3d ac d2 ee bd 81 4e a1 3d
       0.08673511 0.09656722 -0.11661276 0.078763016
000360 87 b6 37 3c 29 36 87 3d 70 ea 0d 3e dd a7 b0 3d
       0.0112129515 0.06602127 0.13858962 0.086257674
000370 ea b6 29 be bf eb 7b 3d b1 54 e7 3d cb 10 29 3e
       -0.16573682 0.061504122 0.112954505 0.16510312
000380 01 37 10 3e 83 7a 6a 3e 10 1e b4 bd ec 23 09 3e
       0.14083482 0.22898297 -0.087947965 0.1339261
000390 8e 18 2e 3c 87 84 22 be 61 af 9c bd 1a 26 65 3e
       0.0106259715 -0.15870868 -0.07650638 0.22377816
0003a0 d6 62 b0 bd 16 b7 92 3d fd 83 59 bc a7 f7 d2 3d
       -0.086126015 0.07163827 -0.013276097 0.10301142
0003b0 02 5e 19 3e 3d a5 48 3d 99 3f fe 3d 70 72 59 bd
       0.14977267 0.04898571 0.12414474 -0.05308765
0003c0 72 42 bc 3b 36 58 36 3e 45 4f e8 bd ed 80 bd bd
       0.0057452256 0.17807087 -0.113432445 -0.09253106
0003d0 a1 87 e9 3d 96 69 1a 3d 9e 08 24 be 3f 44 6a 3e
       0.11402822 0.03769835 -0.16018912 0.22877596
0003e0 98 89 0a be c2 7d 8d bd db 89 a1 bd 53 ac c4 3d
       -0.1352905 -0.06908752 -0.07887622 0.09603181
0003f0 67 5e 0e be 35 2d 09 3e 12 c5 fe bc 99 02 7a 3d
       -0.13903199 0.13396151 -0.03109983 0.061037634

item_embed.weight f4 [578, 32]
000000 cb 2a c2 3c a6 0a ef 3d a2 75 c1 3d 7d da b9 bc
       0.023702046 0.11671953 0.09446265 -0.022687191
000010 da dc f2 bd ea 9c 6c be 97 31 51 be f4 9f 8a be
       -0.1185853 -0.23106733 -0.20429073 -0.2707516
000020 01 b3 79 3b 14 aa e3 3d d3 7f 05 be 64 38 57 bc
       0.003810108 0.11116424 -0.13037042 -0.013136003
000030 9e 9c 31 3e 3f 37 10 3e 35 04 49 bd 16 97 57 bd
       0.17344901 0.14083575 -0.049076278 -0.05263432
000040 a9 53 36 be 79 7e 77 3e fe 42 b2 bd 54 19 88 3e
       -0.17805351 0.24169339 -0.08704184 0.26581824
000050 8c 95 21 bb 77 27 0c be 7f 7a 66 3e b7 31 69 3b
       -0.0024655787 -0.1368693 0.22507666 0.003558261
000060 dc f2 0e be ce 4d 8a bd 88 b0 8a be 0d 74 b4 bd
       -0.13959831 -0.06753121 -0.27087808 -0.088111974
000070 2d c2 a2 bd 37 53 d9 3c 9d 94 90 3b 59 13 87 bc
       -0.07947192 0.026528938 0.0044122473 -0.016488718
000080 87 63 15 be 5f 7f f0 3d e0 3f d8 3d d3 45 d4 bd
       -0.14588748 0.11743044 0.10559058 -0.103648804
000090 36 19 ec 3d 3e b2 91 be ed 91 84 be 08 92 c7 bd
       0.11528246 -0.284563 -0.25892583 -0.0974465
0000a0 a2 65 99 bd a6 b6 5a bc b7 00 a8 bc 04 17 02 bd
       -0.07490088 -0.013349211 -0.020508153 -0.03176023
0000b0 1c a6 8f bd 7e 85 12 3e f6 43 1e be d7 39 32 3e
       -0.07014105 0.14308736 -0.15455613 0.17404877
0000c0 68 5d 0a 3d 28 28 4d 3e a6 bb 01 be 05 63 17 3e
       0.033780485 0.2003485 -0.12669238 0.14783867
0000d0 3f 96 52 3e 72 5e 5f be 48 ca 22 be 49 94 b0 3c
       0.20565127 -0.21813372 -0.15897477 0.021555083
0000e0 c8 9a d0 bd 9d 20 f7 bd 18 67 d1 3d d2 24 10 be
       -0.10185772 -0.12066767 0.10224742 -0.14076546
0000f0 d4 7b 9a be fe 3c 66 3c 03 78 ab 3d f4 84 ca bd
       -0.30172598 0.014052628 0.083725 -0.0988864
000100 bb b4 72 bd 83 80 8e 3e e7 2e 22 be dc af 57 3e
       -0.05925439 0.27832422 -0.15838204 0.21063179
000110 b1 62 be bd 99 e2 26 be 4a 1c 4c be f8 2c 8c bd
       -0.09296168 -0.16297378 -0.19932666 -0.068445146
000120 54 bd 6b be 89 ba 2f be ed 57 55 be c0 c4 a4 bd
       -0.23021442 -0.17161001 -0.20834322 -0.080453396
000130 88 dc 40 3d 85 0d 18 3d dc 26 17 be 86 16 c8 bc
       0.047085315 0.03712227 -0.14760917 -0.024424803
000140 47 3b 0d be 30 4b 66 bd 63 fb 80 be 75 67 90 3e
       -0.13792144 -0.05622405 -0.25191793 0.2820393
000150 e0 94 a1 3c 96 c7 b1 be 81 8d 61 bd 87 a1 99 3d
       0.01972431 -0.34722584 -0.05506659 0.07501512
000160 67 e6 5b be 62 1e 5a be 2b bd 89 be 83 a4 03 3e
       -0.2147461 -0.21300653 -0.26902136 0.12855725
000170 5d 3b 98 be fd e6 0c 3e de ee dc 3b f3 7b 47 be
       -0.2973279 0.1375999 0.0067423424 -0.19480877
000180 22 b5 ad bd e0 c5 90 3d 36 f6 b4 3d 60 0f 05 bd
       -0.08481814 0.07068992 0.088360235 -0.032485366
000190 09 86 34 be 1d 06 57 bd 63 ab f1 3d e1 97 7d 3d
       -0.17629255 -0.052496064 0.118002675 0.06191242
0001a0 8f 34 3f bc 7a 5b bd 3c 34 10 60 bd 8c fe 63 3e
       -0.011670246 0.023114908 -0.054702953 0.2226507
0001b0 fc 12 04 bd f8 f5 59 bd 42 92 b2 3d fb f7 85 bd
       -0.032244667 -0.05321309 0.08719303 -0.06541439
0001c0 1b a5 85 bc f6 e0 10 3e 0d 51 8e 3d 9e 6c 88 bd
       -0.01631408 0.14148316 0.06949053 -0.06661342
0001d0 23 f1 b3 bd 42 34 16 bd 17 56 b6 bd 07 a4 10 3e
       -0.087862276 -0.03667093 -0.08903139 0.14125071
0001e0 4b e1 8a 3d de df cd 3d 1f 14 e1 3d 04 34 4a 3e
       0.067812525 0.10052465 0.10990166 0.19746405
0001f0 18 68 75 3d a7 bb 9a bc e9 8a 1f 3d f0 2c d5 bd
       0.059913725 -0.018888308 0.038950834 -0.10408962
000200 b8 93 9e 3c 34 9f f5 bd 42 0a 30 3d a5 f9 f1 bd
       0.019357547 -0.11993256 0.042978533 -0.11815194
000210 82 52 87 be c3 c9 46 3e c4 ef d5 3d 6d 7d bb bd
       -0.26430136 0.19412903 0.10446122 -0.091547824
000220 8a 0d 87 3d 63 96 ba bd 1a d9 1c bc 65 d9 cd bd
       0.06594379 -0.09110715 -0.009573245 -0.1005123
000230 47 8a 01 be eb db c5 bd 53 1c 90 bd ae 24 8a bd
       -0.12650405 -0.09661087 -0.070366524 -0.06745277
000240 16 43 c8 bd 90 7c 97 bd 60 a0 1a be c6 26 95 bc
       -0.097784206 -0.07396805 -0.1510024 -0.018206965
000250 cc 72 1d be 05 03 70 3d a9 2c aa 3d 19 11 8b bd
       -0.15375823 0.05859663 0.083092995 -0.067903705
000260 e5 4a 65 3e e4 4e f5 3c 95 45 81 bd f0 40 5a be
       0.22391851 0.029944845 -0.063121 -0.21313834
000270 85 51 42 3e 49 50 2a be 10 c9 45 be 0e d6 57 3d
       0.1897641 -0.16632189 -0.1931498 0.052694373
000280 7a c8 3a 3d 20 17 83 bd e5 ce cf bd 45 41 f9 bd
       0.045601346 -0.06400895 -0.10146884 -0.12170652
000290 e9 cc 8f 3d ac 2c 59 3e b9 87 8d 3d 65 94 a8 bd
       0.070215054 0.21208447 0.06910653 -0.08231429
0002a0 77 8b 4b 3e 59 c3 d3 bc 65 2b d6 bd b5 d7 19 3d
       0.1987742 -0.025849985 -0.104574956 0.03755923
0002b0 b7 fa 98 bd 9f b8 dc bd ce 5e ae bd e8 74 21 bd
       -0.07469695 -0.10777401 -0.08514176 -0.03941813
0002c0 32 a3 00 bd a5 5b ae bd e9 f3 7a 3d b7 08 8d 3d
       -0.031405635 -0.085135736 0.061267767 0.06886428
0002d0 60 af b4 bd 85 46 d9 bc 09 50 50 3e d2 8e e1 bd
       -0.088225126 -0.026522884 0.20343031 -0.11013569
0002e0 c1 ae 96 bc 68 da e9 3d 6a 4b 7f bd 77 b7 5a 3d
       -0.018393876 0.11418611 -0.06232778 0.053397622
0002f0 9d da 13 3e 73 7f 22 bd 25 5f c4 bb 32 8b 90 3d
       0.14438863 -0.039672326 -0.0059927874 0.070577994
000300 0f 22 4b be a3 74 cc 3e bd b2 5f 3d be 48 db bd
       -0.19837211 0.39932737 0.054613817 -0.10707234
000310 1f c0 4c 3d f4 b6 1c bd cc bd 97 be 48 98 ec bc
       0.04998791 -0.038260415 -0.2963699 -0.028881207
000320 e5 bd a7 be 5c ff ce 3e 7a 3d 9f be ce 0d c5 be
       -0.32762066 0.404292 -0.3110159 -0.38487095
000330 94 f3 78 3d d9 5b 3c 3e f6 c3 53 3e 1b 9b 81 bc
       0.06077917 0.18394412 0.20680222 -0.01582103
000340 9e 63 f9 3d 75 87 ba 3e 01 ff e4 3d 7c 79 a1 3e
       0.121772036 0.3643147 0.11181451 0.31537998
000350 72 ea 1d 3d 77 c5 b1 be 8d 1e a3 be 9e 69 b7 3e
       0.038553663 -0.34720966 -0.31859246 0.35822767
000360 77 99 73 be 0d 18 54 bc 13 6a 48 be 8e 15 7a bb
       -0.23789011 -0.012945187 -0.19571714 -0.003815982
000370 03 cb 8f be 99 34 3b 3e 96 3d 82 3e f0 6f bc 3d
       -0.28084573 0.18281783 0.2543761 0.09201038
000380 af 94 3e be fc 01 70 3e 77 7b b6 3e a6 7f 09 be
       -0.18611406 0.23438257 0.3564107 -0.134276
000390 89 79 9e 3c d8 7a ab be ad f1 38 be 77 51 64 bd
       0.019345062 -0.3349216 -0.18060942 -0.055741753
0003a0 85 b8 e5 be c8 4c ec 3d ef 8d 1f be 86 96 ec be
       -0.4486734 0.11538082 -0.15581487 -0.4620859
0003b0 b4 35 8b 3e f2 e4 2c 3d c5 20 0d be a4 d5 08 3e
       0.2718941 0.042210527 -0.13782032 0.13362747
0003c0 67 1e ab bd fd cf a2 3e 1d fb a7 3d 06 8c e0 3e
       -0.08355408 0.31799307 0.08202193 0.4385683
0003d0 eb ce 0b 3e 53 46 82 be ba 2f 6c bc e7 96 ec 3d
       0.13653152 -0.25444278 -0.014415676 0.1155222
0003e0 1a 52 73 be e3 28 ac bd be 60 23 bd c3 eb 26 3e
       -0.23761788 -0.08406236 -0.039887182 0.16300873
0003f0 25 57 b8 be 42 c7 23 3e 81 77 92 3e 70 bb 60 3e
       -0.36003986 0.1599398 0.286068 0.21946502
