Lab2/stage2/trained_model/Douban/KG_free/dim32_lr0.001_l20.0001/model0_epoch40.pth (torch, 132419 bytes, 2 tensors)

user_embed.weight f4 [447, 32]
0	0x3ea1c7dc	0.31597793
1	0x3d17538a	0.036944903
2	0xbe4ef1a3	-0.20209365
3	0x3ec5611d	0.38550654
4	0xbe8a36eb	-0.26995024
5	0xbd0a6917	-0.033791628
6	0xbe70dd1f	-0.23521851
7	0xbd83beff	-0.06432914
8	0xbe4934a5	-0.19648989
9	0x3e311a60	0.17295218
10	0x3d83536a	0.06412394
11	0xbcb15f79	-0.02165197
12	0xbdda62c7	-0.106633715
13	0x3e09fe09	0.13475813
14	0x3e347611	0.17623164
15	0x3de390f5	0.11111633
16	0xbd90b2dc	-0.07065365
17	0xbf0d688f	-0.5523767
18	0x3e80d06a	0.25159007
19	0xbe2a9a3d	-0.166604
20	0x3ee73532	0.45157772
21	0x3dd05a93	0.10173526
22	0xbe8032a1	-0.25038627
23	0xbe88389c	-0.2660569
24	0xbec82f7b	-0.39098725
25	0xbe374247	-0.17896377
26	0xbd5c29fe	-0.053750984
27	0x3ecebd3c	0.4037875
28	0xbf274322	-0.6533681
29	0xbc711e3a	-0.014716679
30	0xbbe874e2	-0.0070940116
31	0xbe2c882f	-0.16848825
32	0x3ec52f80	0.38512802
33	0x3d193eaa	0.037413277
34	0x3ed41973	0.41425666
35	0xbe8477f7	-0.25872776
36	0x3ce3c73d	0.027804965
37	0x3db397b7	0.08769172
38	0x3e99f22d	0.30067578
39	0x3e6ffa49	0.2343532
40	0xbecccd03	-0.40000162
41	0x3d7d323f	0.061815497
42	0xbe95ae24	-0.2923442
43	0xbddadf1c	-0.10687086
44	0x3e35c642	0.1775141
45	0x3dafe8da	0.08589335
46	0xbe513ce5	-0.20433386
47	0x3e53db14	0.2068904
48	0xbe960e3b	-0.29307732
49	0xbdef4e4b	-0.11684855
50	0x3e9e7b13	0.30953273
51	0x3cba0d75	0.022711495
52	0x3e1cd56b	0.15315787
53	0xbe12c80f	-0.14334129
54	0xbe95ee3c	-0.2928332
55	0x3eb42fc9	0.35192707
56	0xbeafc46e	-0.3432955
57	0xbe0d62e3	-0.13807254
58	0xbd915a9c	-0.070973605
59	0x3e7bd357	0.24592339
60	0xbea4dc56	-0.32199353
61	0x3e7caaf0	0.24674582
62	0x3ef71723	0.4825984
63	0x3dfefbb5	0.12450353
64	0x3e8ac449	0.2710288
65	0x3e330b3d	0.17484756
66	0xbea172f1	-0.31533006
67	0x3ec88a90	0.39168215
68	0xbe0ce40e	-0.13758871
69	0xbe85d8ea	-0.26142055
70	0xbf079857	-0.5296683
71	0xbe5981ad	-0.21240874
72	0xbeb654e7	-0.3561165
73	0x3ef6c908	0.4820025
74	0x3e513009	0.2042848
75	0xbdc35cab	-0.095391594
76	0x3e4621d0	0.19348836
77	0x3e7c9cdb	0.2466921
78	0x3e171109	0.14752592
79	0xbe38973b	-0.1802644
80	0x3eb3ba3d	0.35103026
81	0xbd89612d	-0.06707988
82	0x3f16dd3d	0.5893133
83	0x3dd867ab	0.10566648
84	0x3e04ae69	0.12957157
85	0x3ebbb33f	0.3666019
86	0xbe965029	-0.29358032
87	0xbd549f43	-0.051909696
88	0xbdd40924	-0.10353306
89	0xbdc131a9	-0.094333
90	0xbdcdccb6	-0.10048811
91	0x3e16f07b	0.14740174
92	0xbeafe589	-0.3435481
93	0x3eb3fd4a	0.35154182
94	0x3e9bd3c8	0.30435014
95	0x3d2f5352	0.04280407
96	0x3e899eab	0.26878867
97	0x3ecc2548	0.39872193
98	0x3b697316	0.0035621575
99	0x3f3fdae3	0.7494337
100	0x3ec39e0e	0.38206524
101	0x3c6bd309	0.014393576
102	0xbd9dd1ea	-0.077060536
103	0x3eb6be59	0.356921
104	0xbe7ee971	-0.24893738
105	0xbda2db19	-0.07951946
106	0xbe16b4a8	-0.14717352
107	0x3eab4447	0.3345053
108	0x3ddcd116	0.107820675
109	0x3dcc31d7	0.09970444
110	0xbd574572	-0.052556463
111	0xbe585549	-0.21126284
112	0x3f2a1332	0.6643554
113	0x3e80004d	0.2500023
114	0xbdf472ab	-0.11935934
115	0xbc3e58d8	-0.011617862
116	0x3d2d17a2	0.042258866
117	0x3e52983e	0.20565888
118	0xbf3500c0	-0.7070427
119	0xbe61ef73	-0.22063999
120	0xbc88f60b	-0.016718885
121	0xbf0faaad	-0.56119806
122	0x3f587f87	0.8456959
123	0x3f1dadc3	0.61593264
124	0xbe92620d	-0.28590432
125	0x3f262ee1	0.6491528
126	0x3ee3fcda	0.44528848
127	0xbf0fe66f	-0.5621099
128	0x3ef758b9	0.48309878
129	0x3da87986	0.08226304
130	0x3e7f85b7	0.24953352
131	0x3da33de6	0.079707906
132	0x3e9af8fa	0.3026808
133	0xbe0e95bb	-0.13924305
134	0x3e772b87	0.24137698
135	0x3e8c6e99	0.2742813
136	0xbec01261	-0.37514022
137	0xbe90f385	-0.2831079
138	0xbe784ffd	-0.24249263
139	0x3e89e6d8	0.26933932
140	0xbd80aa42	-0.06282474
141	0x3d326ff3	0.043563794
142	0x3eb404cb	0.35159907
143	0xbebdbf30	-0.37059927
144	0x3e1d288d	0.153475
145	0xbdf9a85b	-0.121903144
146	0xbde928d3	-0.1138474
147	0x3d093741	0.03349996
148	0x3e08d8ad	0.13363905
149	0x3e9ae38e	0.30251735
150	0xbea571f1	-0.32313493
151	0x3e97c1a7	0.29639933
152	0xbe91be5f	-0.28465554
153	0xbdbc2cfb	-0.09188267
154	0x3d93bbe4	0.07213572
155	0x3e90d95c	0.28290832
156	0xbe318f33	-0.17339782
157	0x3d780ad4	0.0605572
158	0x3de8757a	0.11350532
159	0xbe28d2a3	-0.16486602
160	0xbf0055a3	-0.5013067
161	0x3f47aaf1	0.7799521
162	0x3f86b902	1.052521
163	0xbf1608e3	-0.5860731
164	0x3f2103f0	0.62896633
165	0x3cd4a1ad	0.025956
166	0x3e967b39	0.29390886
167	0x3f04c49c	0.518625
168	0x3e2c7cb5	0.16844447
169	0x3d8d850c	0.06910142
170	0xbf52d47a	-0.82355464
171	0xbf2a9260	-0.666296
172	0xbcf064f2	-0.02934501
173	0xbe6c2c1c	-0.23063701
174	0xbf454fb2	-0.7707473
175	0x3e793080	0.24334908
176	0x3d95a84b	0.0730749
177	0x3e0c612c	0.13708943
178	0x3efcb257	0.49354813
179	0x3f33e9e3	0.7027876
180	0x3ef2edce	0.47447056
181	0xbf12af26	-0.57298505
182	0x3f12001b	0.5703141
183	0xbee46170	-0.4460559
184	0xbf87a429	-1.0596973
185	0xbe70cca5	-0.23515566
186	0xbebd425a	-0.36964685
187	0x3de63f0e	0.112424955
188	0x3ea6f2b3	0.3260704
189	0x3f57381e	0.84070003
190	0x3e089c24	0.13340813
191	0x3f7a33a6	0.9773506
192	0xbe29eec2	-0.16594985
193	0x3e205c8b	0.15660302
194	0xbdb30d7c	-0.08742806
195	0x3e206ca7	0.15666448
196	0x3e78fa78	0.24314296
197	0xbe77b789	-0.24191107
198	0x3e5d3f51	0.21606185
199	0x3d213c13	0.039363932
200	0x3c08eeda	0.008357728
201	0xbe5a663f	-0.21328066
202	0x3d3817b6	0.044944488
203	0xbe5ef700	-0.2177391
204	0x3e8b85d7	0.2725055
205	0x3e852454	0.2600428
206	0x3e0b25ac	0.1358859
207	0x3d8fd383	0.070227645
208	0xbd95aed7	-0.07308739
209	0x3e013b84	0.1262036
210	0x3e5026bf	0.2032728
211	0x3e895236	0.26820534
212	0x3d15b629	0.036550675
213	0xbda80677	-0.08204358
214	0xbe014799	-0.12624969
215	0x3e6c88cd	0.2309906
216	0xbcd86227	-0.02641399
217	0x3e3a880c	0.1821596
218	0xbd2de470	-0.042454183
219	0x3e481efe	0.19543073
220	0xbe8847b8	-0.26617217
221	0xbe316921	-0.1732526
222	0x3e52adeb	0.20574157
223	0x3eb0cc92	0.34531075
224	0x3e605b52	0.21909836
225	0x3ed1c957	0.40973923
226	0xbea9c31b	-0.33156666
227	0x3e948ede	0.2901525
228	0x3e5f37c0	0.2179861
229	0xbe675b63	-0.22593455
230	0xbe4cc566	-0.19997177
231	0x3f178184	0.59182
232	0xbe094787	-0.13406192
233	0x3d7a9941	0.06118131
234	0xbd4fd54c	-0.050740525
235	0x3e8b0157	0.2714946
236	0x3f09b0c7	0.53785366
237	0x3e822e89	0.25426129
238	0x3ee57be0	0.44821072
239	0x3beeb8c3	0.007285209
240	0x3e882c0e	0.2659611
241	0x3ef81b49	0.48458317
242	0xbd432e82	-0.047651775
243	0xbe82f03d	-0.25573912
244	0x3e85f6d3	0.26164874
245	0xbd7c35ea	-0.061574854
246	0xbe8fb902	-0.28070837
247	0x3f224bf4	0.63397145
248	0xbe4023f8	-0.18763721
249	0xbe975125	-0.29554096
250	0xbe420048	-0.1894542
251	0x3e673515	0.22578843
252	0xbe88cf62	-0.2672072
253	0x3e52bb75	0.20579322
254	0xbdaad902	-0.08342172
255	0x3e0e8195	0.13916619

item_embed.weight f4 [578, 32]
0	0xbe8478bd	-0.25873366
1	0x3e50a711	0.20376231
2	0x3d66d8ba	0.05635903
3	0xbdb2e0fb	-0.08734318
4	0xbeada1e9	-0.3391259
5	0xbec7f1e9	-0.3905175
6	0xbf2e325b	-0.68045586
7	0xbf0ba84d	-0.5455368
8	0xbdb9ccb5	-0.09072248
9	0x3ec91887	0.39276525
10	0xbe42c097	-0.1901878
11	0xbd30d4a9	-0.04317156
12	0x3ecaffaa	0.3964818
13	0x3dbf3921	0.09337068
14	0xbe90d440	-0.28286934
15	0xbe5a3605	-0.2130967
16	0xbea8e23f	-0.32985112
17	0x3f13c677	0.5772471
18	0xbea6b242	-0.32557875
19	0x3f14a659	0.58066326
20	0xbe473d25	-0.19456919
21	0xbf07914a	-0.5295607
22	0x3f0525bb	0.520107
23	0x3da0ca4f	0.07851087
24	0xbe6b6d66	-0.22990951
25	0xbe34591b	-0.17612116
26	0xbf1e1393	-0.6174862
27	0xbe43694c	-0.19083136
28	0xbc3c994f	-0.011511161
29	0x3e4c8b51	0.1997502
30	0x3e4ba25a	0.19886151
31	0xbcc09d29	-0.02351244
32	0xbeee4cf3	-0.46543083
33	0x3e874daf	0.26426455
34	0x3e68b713	0.22726087
35	0xbe661dcd	-0.22472306
36	0x3cc8a5af	0.024493067
37	0xbf123854	-0.571172
38	0xbf370092	-0.71485245
39	0xbf18fa8e	-0.59757316
40	0xbdc0e8d3	-0.09419408
41	0xbb0d59bb	-0.0021568376
42	0x3dcab6cf	0.09898149
43	0xbe50aa5c	-0.20377487
44	0xbde76504	-0.11298564
45	0x3e5655ce	0.2093117
46	0xbec01e48	-0.37523103
47	0x3eb76a74	0.35823405
48	0x3d910853	0.07081666
49	0x3ea2eda6	0.31821936
50	0xbec5c44e	-0.3862633
51	0x3efaa251	0.48951963
52	0x3f198dbd	0.599819
53	0xbebf8b89	-0.37411144
54	0xbe427144	-0.1898852
55	0x3da7ed1f	0.08199524
56	0xbe8c9ac9	-0.27461842
57	0xbe8226d9	-0.25420263
58	0x3e11fa3d	0.14255615
59	0xbe913459	-0.2836025
60	0xbf01321a	-0.50467074
61	0x3d7231f4	0.05912967
62	0x3eb32705	0.34990707
63	0xbe8b185f	-0.2716703
64	0xbe8acfb0	-0.27111578
65	0x3ee8f667	0.4550049
66	0xbe781d8d	-0.24230023
67	0x3e4c23e7	0.1993557
68	0xbe8ae277	-0.27125904
69	0xbea9de81	-0.3317757
70	0xbeb7a88a	-0.35870773
71	0xbe3927ba	-0.1808156
72	0xbebebeb2	-0.37254864
73	0xbdf32402	-0.11872102
74	0xbed9bf33	-0.42528686
75	0xbea4bac2	-0.32173735
76	0x3e32c191	0.17456652
77	0x3da1f1dc	0.07907459
78	0xbf10d5de	-0.56576335
79	0x3c8c1824	0.017101355
80	0xbef555d2	-0.47917038
81	0x3dc9a9a5	0.0984681
82	0xbf3da614	-0.7408154
83	0x3f301dc0	0.68795395
84	0x3d762cd9	0.060101364
85	0xbf48d873	-0.78455275
86	0xbd123fcc	-0.035705373
87	0x3d8ef5c7	0.06980472
88	0xbe9362f4	-0.28786433
89	0xbe672181	-0.22571374
90	0xbf2cdc80	-0.67523956
91	0x3dca7aa2	0.098866716
92	0xbe986b0a	-0.29769164
93	0x3e0dfb67	0.13865434
94	0x3e40a156	0.18811545
95	0xbe9a59d1	-0.3014665
96	0xbd5080ca	-0.050904073
97	0x3d807f4a	0.062742785
98	0x3dde0b4c	0.108419985
99	0xbdb4b538	-0.08823627
100	0xbeb79433	-0.35855255
101	0xbe245dee	-0.16051456
102	0x3eb3b04d	0.35095444
103	0x3ea99a2b	0.33125433
104	0xbd4177bf	-0.04723334
105	0xbe6712e0	-0.22565794
106	0xbdd26706	-0.102735564
107	0x3f05fa8a	0.5233542
108	0x3ddedc81	0.108819015
109	0x3db33208	0.08749777
110	0x3ef92142	0.48658186
111	0x3e19d8f1	0.15024163
112	0x3ea28e38	0.3174913
113	0x3ef05dd8	0.46946597
114	0x3ef0a639	0.47001818
115	0xbe09406f	-0.13403486
116	0xbec324e4	-0.38114083
117	0xbd755924	-0.059899464
118	0xbe0f7318	-0.14008749
119	0x3ed55a70	0.4167056
120	0xbd871347	-0.06595474
121	0x3de0b500	0.10972023
122	0x3c25fa47	0.010130472
123	0x3eb2f968	0.34955907
124	0x3daa9060	0.083283186
125	0xbdffd066	-0.12490921
126	0x3e1be3e7	0.15223657
127	0xbe6fa107	-0.23401271
128	0x3d69d2e9	0.057085905
129	0x3c13e064	0.009025667
130	0x3e17ba01	0.14817049
131	0xbe64b473	-0.22334461
132	0xbf4b8e2a	-0.795138
133	0x3f4d1b41	0.8011971
134	0x3dfa1c60	0.12212443
135	0x3d2ddc2e	0.042446308
136	0x3ca4e2be	0.02012765
137	0xbe6a5872	-0.22885302
138	0xbd355d0a	-0.044278182
139	0xbe2a8402	-0.1665192
140	0xbee70275	-0.45119062
141	0xbe37e037	-0.17956625
142	0xbf1d4935	-0.6143983
143	0xbe825c21	-0.25460914
144	0x3d74807a	0.059692837
145	0xbda3dee9	-0.08001501
146	0xbf1519e9	-0.5824266
147	0x3e24fcfe	0.16112134
148	0xbeb53a07	-0.35395834
149	0xbe51e082	-0.20495799
150	0x3d86017d	0.065432526
151	0xbe63f46a	-0.22261205
152	0x3f125aaa	0.5716959
153	0xbbb39fb2	-0.0054816836
154	0xbd809c48	-0.06279808
155	0xbed2027a	-0.41017514
156	0x3ec2bc94	0.380345
157	0xbc7f654e	-0.015588118
158	0xbdaf0c20	-0.085472345
159	0xbe3c016c	-0.18359917
160	0x3d9ff3eb	0.078101955
161	0xbd1ef41c	-0.03880702
162	0xbe0b6cc8	-0.13615716
163	0xbe6c3523	-0.23067145
164	0x3ea6a796	0.32549733
165	0x3ede8f9a	0.43468934
166	0x3bec90cc	0.0072194096
167	0xbe7f4d6f	-0.24931882
168	0x3e8c9877	0.2746007
169	0x3d36f351	0.04466564
170	0xbecdcace	-0.4019379
171	0x3c800a5c	0.01562994
172	0xbe1cb07b	-0.15301697
173	0xbe5b171e	-0.21395537
174	0xbf0332d6	-0.51249444
175	0xbca382f4	-0.019959904
176	0xbe3a6b77	-0.18205057
177	0xbe86f480	-0.26358414
178	0x3e20000c	0.15625018
179	0x3ed4aaf4	0.41536677
180	0xbe858979	-0.26081446
181	0xbdf65cf5	-0.12029449
182	0x3ecf7ab1	0.40523294
183	0xbe48f823	-0.19625907
184	0xbdb06697	-0.086133175
185	0x3e83b635	0.2572495
186	0xbdde1413	-0.108436726
187	0x3e8c38c9	0.27387074
188	0x3e880a76	0.2657048
189	0x3c4f12a4	0.012638722
190	0xbcb24f17	-0.021766229
191	0x3ee81486	0.45328158
192	0xbed252a3	-0.41078672
193	0x3f45aa61	0.772131
194	0xbced57d2	-0.02897254
195	0xbe5641a8	-0.20923483
196	0x3e255a21	0.16147663
197	0x3ab138f7	0.0013521005
198	0xbf2d96c4	-0.67808175
199	0xbe4bbf0b	-0.19897096
200	0xbf174863	-0.5909483
201	0x3f4d3722	0.8016225
202	0xbf3f4cf9	-0.74726826
203	0xbf3aa26f	-0.72904104
204	0x3e013933	0.12619476
205	0x3f049f0f	0.51805204
206	0x3e84c40d	0.25930825
207	0x3e4245ff	0.18972014
208	0x3e8e8d54	0.278422
209	0x3f180ecf	0.59397596
210	0x3ddd8131	0.10815657
211	0x3f11711c	0.56813216
212	0x3ddafde6	0.106929585
213	0xbf1d20ba	-0.6137806
214	0xbf358cfa	-0.7091824
215	0x3f2bce07	0.6711125
216	0xbee60150	-0.44922876
217	0xbd8117e8	-0.06303388
218	0xbe51a161	-0.20471717
219	0x3c3a6463	0.011376473
220	0xbf04c768	-0.5186677
221	0x3f0a936d	0.54131204
222	0x3f0670dd	0.52515966
223	0x3ec697b6	0.3878762
224	0xbebc71f7	-0.36805698
225	0x3ef8cf45	0.48595634
226	0x3f305a60	0.688879
227	0xbe87f6e5	-0.26555553
228	0xbdbedb62	-0.09319188
229	0xbf17fd0a	-0.5937048
230	0xbed6c969	-0.4195054
231	0xbe83e17d	-0.2575797
232	0xbf3c0c10	-0.73455906
233	0x3ee6dca7	0.4509022
234	0xbe8f2b06	-0.27962512
235	0xbf62ddb6	-0.88619554
236	0x3f0bfc3a	0.5468174
237	0x3e623b84	0.22093016
238	0xbe692bcc	-0.22770613
239	0x3eaa6c9c	0.33285987
240	0xbe47788b	-0.19479577
241	0x3f07691a	0.5289475
242	0x3dc64df3	0.096828364
243	0x3f503ef7	0.81346077
244	0x3eb3ff25	0.35155597
245	0xbec9da72	-0.39424473
246	0x3d5d1534	0.0539753
247	0x3e8131fd	0.2523345
248	0xbed61281	-0.41810992
249	0xbe999820	-0.29998875
250	0xbe23c519	-0.15993156
251	0x3e46abd3	0.19401483
252	0xbf0ef639	-0.55844456
253	0x3e40a590	0.18813157
254	0x3f052c2d	0.5202053
255	0x3eb4cd87	0.35313055
