Lab2/stage2/trained_model/Douban/KG_free/dim32_lr0.001_l20.0001/model0_epoch30.pth (torch, 132419 bytes, 2 tensors)

user_embed.weight f4 [447, 32]
000000 31 b8 96 3e b4 3a 7c 3d 09 d8 3d be 6c 48 bc 3e
       0.29437402 0.06157942 -0.18539442 0.36774004
000010 e3 f5 2d be e9 44 8e bb 17 6d 69 be 10 21 e3 bc
       -0.1698833 -0.004341711 -0.2279552 -0.027725726
000020 1b 43 3a be 9e d0 cc 3d 9a 9b 61 3d d6 97 9d 3c
       -0.18189661 0.10000728 0.055080034 0.01923744
000030 d5 3c a1 bc c5 70 00 3e ca 8f 29 3e 1c f3 e8 3d
       -0.019682327 0.12543018 0.16558757 0.113744944
000040 e1 0f 5a bb 32 c7 f0 be 10 1c 51 3e e9 8a 23 be
       -0.0033273625 -0.47026974 0.20420861 -0.15970959
000050 3b 82 c9 3e ce 67 f3 3d e9 bd 74 be 5d e5 4b be
       0.3935717 0.118850335 -0.2390057 -0.19911714
000060 0b f4 a7 be 3c f8 4a be 93 3c 9a bc d6 b2 c0 3e
       -0.32803378 -0.19821256 -0.018827712 0.3763644
000070 96 e3 0f bf b3 8b 79 3c 9a e1 99 bc 59 32 2f be
       -0.56206644 0.015231061 -0.018784333 -0.1710905
000080 78 7d a9 3e 73 7a 9a 3d 0b 73 b9 3e ad a3 3a be
       0.33103538 0.075428866 0.36220583 -0.182265
000090 bf db 4b 3d fa 54 8c 3d 4d fc 4c 3e 0e 6b 39 3e
       0.049770113 0.068521455 0.2001812 0.18107244
0000a0 1e f3 be be df 3e a2 3d 12 16 7d be 76 85 ae bd
       -0.3729486 0.07922148 -0.2471545 -0.085215494
0000b0 6e de 19 3e b1 c0 15 3e 10 06 42 be 41 80 e9 3d
       0.15026256 0.14624287 -0.18947625 0.114014156
0000c0 57 b8 5e be ce 00 c7 bd 5e 27 7f 3e 40 08 94 3c
       -0.21750008 -0.0971695 0.24917361 0.01807034
0000d0 6f c0 5d 3e 45 9d 12 be 23 7b 88 be 95 bf 9c 3e
       0.21655439 -0.14317806 -0.26656446 0.30614915
0000e0 d1 26 b0 be 7a b2 f7 bd a9 e8 b1 bc a4 5c 87 3e
       -0.34404615 -0.120945886 -0.021717386 0.26437867
0000f0 49 61 9c be f4 63 7f 3e 0c e6 e8 3e 94 3b 79 3d
       -0.30542973 0.24940473 0.45488012 0.060847834
000100 57 39 93 3e f2 3f 47 3e d1 d5 5a be da ed b7 3e
       0.28754684 0.19457987 -0.21370627 0.35923654
000110 76 a0 99 bd 3c 52 48 be 81 9d f0 be b6 b6 15 be
       -0.075013086 -0.1956262 -0.46995166 -0.1462048
000120 80 30 af be e3 98 cd 3e 48 41 21 3e 12 23 c2 bd
       -0.3421669 0.40155706 0.15747559 -0.094793454
000130 a0 e3 e8 3d 85 7f 6f 3e c4 bf 93 3d ec e7 0d be
       0.11371541 0.23388489 0.07214311 -0.13858002
000140 69 62 b3 3e fa dd 9b bd 49 27 fa 3e f7 22 99 3d
       0.35036018 -0.07610698 0.48858097 0.07477372
000150 73 3f 1f 3e 80 a1 a1 3e 4f 8e 96 be 61 2d 90 ba
       0.15551548 0.31568527 -0.29405448 -0.0010999852
000160 1c 30 06 be 3f 87 ba bd d0 2a 3f bd ca ec 67 3e
       -0.1310429 -0.091078274 -0.04667169 0.22648922
000170 3e c7 b7 be 8a 2f a1 3e b2 43 8c 3e 21 86 cf bb
       -0.35894197 0.31481582 0.27395397 -0.006333128
000180 9b 71 a6 3e 59 68 d0 3e 8c a7 5d bd 97 34 24 3f
       0.3250855 0.4070461 -0.054114863 0.64142746
000190 68 43 aa 3e ab a3 5f bc 22 6e 9b bd 5a 78 a1 3e
       0.33254552 -0.013649861 -0.075893655 0.31537133
0001a0 6d 93 85 be b0 75 cc bd 34 3c 10 be c9 24 95 3e
       -0.2608904 -0.099833846 -0.14085466 0.29129627
0001b0 1a dd d2 3d 5a 33 d6 3d 0a bd 7c bb 6a 21 15 be
       0.10296078 0.10459013 -0.0038564824 -0.14563528
0001c0 ff 0c 10 3f fd 91 1d 3e 44 f0 97 bd db 76 a3 bc
       0.5626983 0.15387721 -0.07418874 -0.019954136
0001d0 14 6a ce 3d 93 85 4e 3e 7c 2c 1a bf 3b b6 20 be
       0.100788265 0.20168142 -0.6022413 -0.15694515
0001e0 95 93 38 bd 12 bd 06 bf 9a 35 33 3f c3 e8 12 3f
       -0.04506262 -0.5263225 0.70003664 0.57386416
0001f0 7a 11 9f be c0 97 11 3f d1 c8 bb 3e a2 46 00 bf
       -0.3106802 0.5687218 0.36676648 -0.5010778
000200 a6 37 d2 3e 77 75 d8 3d e8 b0 71 3e 45 e9 dc 3d
       0.4105808 0.1056928 0.2360264 0.1078668
000210 11 b5 7d 3e 57 50 03 be dc f9 33 3e 9a 54 86 3e
       0.24776103 -0.12823616 0.17575783 0.2623642
000220 30 20 9e be 7b 97 62 be f5 41 15 be c0 0b 8e 3e
       -0.30883932 -0.22128098 -0.14575942 0.2774334
000230 a4 20 d0 bc 7c e7 0a 3d f0 a3 8d 3e db c2 b1 be
       -0.02540619 0.033912167 0.27664137 -0.34718975
000240 37 b2 1b 3e 90 bb 34 be 59 f8 b6 bc 49 34 09 bd
       0.15204702 -0.17649674 -0.022335218 -0.03349713
000250 e2 08 01 3e 21 f8 9b 3e 9b f2 a2 be 8d bf 80 3e
       0.12601045 0.30462745 -0.31825718 0.25146142
000260 4d c9 7e be 7f 7f 09 be f2 5a 7c 3d 16 a7 87 3e
       -0.24881478 -0.13427542 0.06161017 0.26494664
000270 e2 04 33 be b4 e8 96 3d 7e c2 e5 3d 93 e3 39 be
       -0.17482331 0.07368603 0.11218737 -0.18153219
000280 4e 73 dd be 75 75 32 3f b8 d3 69 3f 81 22 0e bf
       -0.43252033 0.69710475 0.9133868 -0.555214
000290 32 7a 14 3f 33 2a 60 3c e2 94 6b 3e bd 6d e1 3e
       0.57998955 0.013681936 0.23006013 0.44029036
0002a0 7e b6 11 3e bb 2f cc 3d 5d a2 3b bf 31 a3 1f bf
       0.14229771 0.09970041 -0.7329462 -0.62358385
0002b0 04 54 ac bc 4b a6 3c be 67 4d 2f bf 3b 85 53 3e
       -0.021036156 -0.1842281 -0.6847748 0.20656292
0002c0 e4 18 54 3d a8 0c 12 3e b6 04 bf 3e e7 ff 22 3f
       0.05178155 0.1426264 0.37308282 0.63671726
0002d0 33 23 cd 3e 53 0a 0c bf 73 a5 fd 3e d1 6c c8 be
       0.40065917 -0.54703254 0.4954029 -0.3914552
0002e0 65 25 6c bf e0 cc 3b be 16 64 a5 be eb e2 b1 3d
       -0.9224456 -0.18339872 -0.32302922 0.08685859
0002f0 fc aa 8f 3e 53 44 3e 3f 3d fe 19 3e 67 41 5b 3f
       0.28060138 0.74323004 0.1503839 0.8564667
000300 17 b9 23 be aa 08 1f 3e 21 5d 95 bd 19 ad 1e 3e
       -0.15988575 0.15530649 -0.072931536 0.15495719
000310 6f 1c 61 3e 80 ce 33 be 4e 5a 32 3e 06 87 5a 3d
       0.21983503 -0.17559242 0.17417261 0.053351425
000320 d8 65 54 3a b7 05 b5 bd 35 d7 e2 3c 5d 69 5d be
       0.0008102334 -0.08838981 0.02769051 -0.21622224
000330 ba 4e 81 3e 27 da 6a 3e 69 f9 02 3e 5d eb 91 3d
       0.25255376 0.22934781 0.12790455 0.0712497
000340 75 98 81 bd 73 2f 90 3d a3 b5 2f 3e ce 7f 5c 3e
       -0.06327907 0.070403 0.17159133 0.21533129
000350 8d e7 8d 3d e0 2a 37 bd 25 e6 17 be 3b 37 2e 3e
       0.069289304 -0.044718623 -0.14833887 0.17013256
000360 63 88 14 bd 36 bb 28 3e 21 89 29 bc b1 76 2f 3e
       -0.03626288 0.16477665 -0.0103476355 0.17135121
000370 8d 97 81 be c8 d8 95 bd 09 9d 5b 3e 47 a7 98 3e
       -0.25310937 -0.07316738 0.21446623 0.29815122
000380 2f d4 76 3e 86 d5 c9 3e 20 c9 8f be 1f 6b 92 3e
       0.24104379 0.39420718 -0.28083134 0.28597352
000390 0e 2c 3f 3e 97 9e 65 be 90 a8 3a be 91 48 07 3f
       0.1866915 -0.22423778 -0.18228364 0.528451
0003a0 7b 5d 29 be 7a f7 29 3d fc 65 9f bd b2 b0 84 3e
       -0.16539566 0.041495778 -0.07783124 0.25916058
0003b0 05 03 d5 3e e8 b8 56 3e f1 02 bd 3e c8 4f 19 3b
       0.41603866 0.20968974 0.36916307 0.00233935
0003c0 01 ba 55 3e a1 66 cb 3e f0 79 44 bd 64 3d 71 be
       0.20871736 0.39726737 -0.04796785 -0.23558575
0003d0 66 de 81 3e 8d e3 14 bd b1 e8 99 be a8 c1 06 3f
       0.2536499 -0.03634982 -0.30060342 0.52639246
0003e0 24 07 65 be e9 eb 74 be f6 83 14 be 07 5f 71 3e
       -0.22366005 -0.23918118 -0.14503464 0.23571406
0003f0 c5 db 93 be 2c 06 7c 3e 08 53 9d bc 19 ca ea 3d
       -0.28878608 0.2461173 -0.019204631 0.11464328

item_embed.weight f4 [578, 32]
000000 c5 9c 2e be d2 28 38 3e 18 ee ab 3d 5b 67 ec bd
       -0.1705199 0.17984322 0.08395022 -0.11543151
000010 93 ba 8d be b0 f5 c7 be 1d 76 11 bf 06 08 12 bf
       -0.27681407 -0.39054632 -0.5682085 -0.5704349
000020 4b ad ba bd 3f 43 b1 3e eb 8b 6f be 90 3c f2 bd
       -0.09115084 0.34621617 -0.23393218 -0.11827958
000030 e1 8a b9 3e 8d cd 28 3e 50 cb 80 be e9 e1 ed bd
       0.3623877 0.16484661 -0.25155115 -0.116153546
000040 c5 f7 a0 be 73 60 10 3f 13 c6 89 be 29 70 16 3f
       -0.31439033 0.5639717 -0.2690893 0.5876489
000050 e3 4b 14 be 5b de 02 bf 43 10 e1 3e c1 89 ba 3d
       -0.14482073 -0.5112054 0.4395772 0.09108306
000060 8f 9a 7c be fc 39 eb bd 47 3d 16 bf 4d 2f 3d be
       -0.24668334 -0.11485669 -0.5868725 -0.18475075
000070 d4 f3 0c bd bc 27 02 3e 21 b2 4a 3e 7e 26 24 3d
       -0.03441222 0.1271047 0.19794513 0.04007577
000080 ac 6c ba be a7 c9 80 3e 2f 53 45 3e 97 c8 3c be
       -0.36411035 0.2515385 0.19270013 -0.18435894
000090 b8 5e b1 3d 85 63 06 bf 41 dd 1b bf ca 18 fb be
       0.08660644 -0.52495605 -0.6088448 -0.4904235
0000a0 46 f1 1e be f2 d5 16 bd 02 e0 6b bc 36 20 3e be
       -0.15521726 -0.036825128 -0.014396669 -0.18566975
0000b0 82 d7 e0 bd 67 d4 54 3e 19 79 ad be b7 db b3 3e
       -0.10978605 0.2078415 -0.33881453 0.35128567
0000c0 77 43 9b 3d b7 a9 9f 3e 20 03 b3 be 89 db e1 3e
       0.07581227 0.3118417 -0.34963322 0.44112805
0000d0 8d fa ff 3e 94 6b b3 be 87 f5 68 be 97 4c e2 3d
       0.49995843 -0.35043013 -0.22749911 0.110497646
0000e0 a8 6a 88 be 21 42 61 be e3 42 09 3e d7 6d 61 be
       -0.26643872 -0.21997882 0.13404422 -0.22014557
0000f0 53 6b fb be 08 58 8f 3d 2d 9f 96 3e 40 94 49 be
       -0.4910532 0.069992125 0.29418316 -0.19685459
000100 93 76 77 be de 49 cd 3e 5b d9 60 be f7 66 58 3e
       -0.24166326 0.4009542 -0.21957915 0.21133028
000110 da f7 5c be 41 2b a7 be 10 d6 b9 be 18 43 40 be
       -0.21578923 -0.32650188 -0.3629613 -0.18775594
000120 54 de b3 be df 99 06 be 62 99 d5 be 74 8f 99 be
       -0.3513056 -0.13144635 -0.41718584 -0.2999226
000130 ec 63 d1 3d 19 c2 40 3d 42 61 f3 be 39 2a 83 3c
       0.10224137 0.047060106 -0.4753514 0.016011344
000140 b1 4f dc be 2e 58 87 3d d1 94 27 bf 7d d4 1d 3f
       -0.4302955 0.06608616 -0.6546145 0.61652356
000150 96 b4 14 3d fd 9c 35 bf 7b df 7a bd fa e0 53 3d
       0.036305033 -0.7094267 -0.061248284 0.051728226
000160 45 2a 96 be 21 97 7d be a2 07 17 bf 7e 3d d0 3d
       -0.29329124 -0.24764682 -0.5899602 0.10167979
000170 c8 fc a6 be f2 9c 0f 3e 67 dd 0a 3e d0 b4 87 be
       -0.32614732 0.14024714 0.13561021 -0.26505136
000180 0b f5 3b bd d2 90 b5 3d b7 02 94 3d 2d 96 30 bd
       -0.045887988 0.08865513 0.0722708 -0.04311197
000190 c1 98 a0 be 66 65 14 be d2 04 94 3e e3 6e 8b 3e
       -0.31366542 -0.14491805 0.28909928 0.27233037
0001a0 9b a8 44 bd 3b 2f 24 be eb 86 a4 bd 08 c5 ed 3e
       -0.048012357 -0.16033642 -0.08033546 0.46439385
0001b0 b5 6c 8a 3d 65 6d 25 3d 30 da cb 3e ba 4d 00 3e
       0.067590155 0.04038753 0.398149 0.1252965
0001c0 f8 ee 77 3e de ba b4 3e 99 5d b9 3e 71 7f 1d be
       0.24212253 0.35298818 0.36204222 -0.15380646
0001d0 64 b7 90 be a3 98 12 bd e6 8e 16 be be 0c a3 3e
       -0.28264916 -0.035790097 -0.14702949 0.3184566
0001e0 2d 5a 2e bd c2 e0 89 3d b1 e4 ae 3d d3 75 a4 3e
       -0.042566467 0.06732322 0.08539713 0.32121143
0001f0 b8 d2 75 3d a9 8d 9c bd 43 f3 bc 3d c5 cc 58 be
       0.06001541 -0.07644207 0.09226086 -0.21171863
000200 b3 a5 2e 3c 54 ef 99 bd b6 fa 03 3e 1e fb 79 be
       0.010659623 -0.07516351 0.12888607 -0.244122
000210 f8 87 21 bf 38 d3 20 3f 63 f2 1c 3e 21 9d fe bc
       -0.63098097 0.62822294 0.15326838 -0.031080784
000220 44 7d af 3d 9b 98 3f be ed 3c fa 3a 49 46 28 be
       0.085688144 -0.18710558 0.0019091644 -0.16433062
000230 30 e5 ca be df c7 42 be 15 5d ed be 50 83 5e be
       -0.3962798 -0.19021557 -0.46360078 -0.21729779
000240 72 d4 16 bd 19 85 d5 bd d6 2c e4 be b7 8e d9 3d
       -0.036823697 -0.10425777 -0.44565457 0.10622924
000250 d4 b8 ae be ad 8e 04 be f5 84 0c 3e 84 e5 41 be
       -0.34125388 -0.12945051 0.13722594 -0.1893521
000260 1c 8b 05 3f 3c 86 2c 3d 70 b9 a7 bd 24 c4 c8 be
       0.5216539 0.042120203 -0.08189666 -0.39212143
000270 08 f3 b5 3e 0e ef 08 be a6 2a 19 be 3c e2 7e bd
       0.3553698 -0.13372442 -0.14957675 -0.062227473
000280 dc fd 84 3d 98 18 4d bd 44 3c d7 bd b8 48 71 be
       0.06493732 -0.050072283 -0.10509542 -0.23562896
000290 56 29 65 3e 80 9b d4 3e 1f e7 22 3d bf 85 72 be
       0.2237905 0.41524887 0.039771196 -0.23683833
0002a0 ed 3a 83 3e 22 31 db 3a 2c e5 a2 be 62 dc 4b 3d
       0.25630894 0.0016723017 -0.3181547 0.04977072
0002b0 6e 93 b3 bd c7 79 2d be b6 2a c8 be 15 03 7d bc
       -0.08768354 -0.16940986 -0.39095086 -0.015442629
0002c0 95 a8 0f be 50 02 7a be fd 3f 05 3e d0 85 a1 3e
       -0.14029153 -0.24414945 0.13012691 0.31547403
0002d0 f1 eb 5f be ae 3b e8 bd 3f ff c1 3e 6b b7 35 be
       -0.21867348 -0.11339508 0.3789005 -0.1774575
0002e0 3f b1 69 bd 76 a8 7d 3e d4 d9 ce bd 74 92 3f 3e
       -0.0570538 0.24771294 -0.10100141 0.18708211
0002f0 b9 24 81 3e b1 3c 2b bd 0e f0 7c bc 77 b3 a3 3e
       0.2522333 -0.041805927 -0.015438093 0.31972858
000300 57 a1 bf be eb db 35 3f 06 08 84 3c 4c 24 34 be
       -0.3742778 0.71038693 0.016117107 -0.17591971
000310 ac df 19 3e c1 01 bc bd a8 2e 22 bf ab a8 40 be
       0.1502673 -0.09180022 -0.6335244 -0.18814342
000320 02 a7 18 bf 97 58 3d 3f 4e 7e 28 bf 21 02 36 bf
       -0.59629834 0.739633 -0.65817726 -0.71097
000330 a5 19 32 3e f0 0b f6 3e 97 e4 86 3e 3e ec 0f 3e
       0.17392595 0.48055983 0.26346275 0.14054963
000340 65 d9 82 3e b3 3c 17 3f 86 1f 17 3e 8d 4c 19 3f
       0.25556484 0.59076995 0.14758119 0.5988243
000350 bd 88 c1 3d 94 86 21 bf 1c c4 23 bf 48 ab 20 3f
       0.09449909 -0.63095975 -0.63971114 0.62761354
000360 c0 c1 e5 be 04 8f 86 bd 73 71 81 be 56 5e 46 3c
       -0.44874382 -0.06570247 -0.25281867 0.012107452
000370 98 2e fc be 26 b8 fe 3e 76 9e 03 3f de 15 b3 3e
       -0.49254298 0.4974987 0.5141367 0.3497762
000380 6b 8a ad be 02 ef e7 3e 66 6d 26 3f bd ff 63 be
       -0.33894667 0.45299536 0.6501068 -0.22265525
000390 54 a6 4d bd 4d ad 0f bf f2 e6 c9 be d2 f8 64 be
       -0.05020745 -0.5612381 -0.3943401 -0.22360542
0003a0 cc 5e 30 bf 42 c3 c9 3e 0e 50 9d be dd c5 51 bf
       -0.6889465 0.39406782 -0.3072514 -0.8194254
0003b0 19 11 04 3f 7e 39 65 3e b9 bf 74 be 1c b7 9c 3e
       0.5158859 0.22385213 -0.23901261 0.3060845
0003c0 c0 b7 3a be ef 22 05 3f f8 c8 95 3d 85 4d 48 3f
       -0.18234158 0.5200643 0.07313722 0.78243285
0003d0 aa 8e a0 3e f2 4f d8 be 13 28 ed 3a e0 33 74 3e
       0.31358844 -0.42248493 0.0018093608 0.23847914
0003e0 e9 8b c4 be c5 30 83 be eb 63 35 be c8 2e 5e 3e
       -0.38387993 -0.25623146 -0.17713897 0.21697533
0003f0 69 c1 0b bf 4b 32 4b 3e 40 cf 02 3f fc 79 c0 3e
       -0.54591995 0.19843404 0.5109749 0.37593067
